#loc = loc("/home/rolph/projects/stanford-cs336-assignment2-systems/triton_mlir.py":75:0)
#loc43 = loc(unknown)
#loc68 = loc("/home/rolph/projects/stanford-cs336-assignment2-systems/.venv/lib/python3.12/site-packages/triton/language/standard.py":31:0)
#loc78 = loc("/home/rolph/projects/stanford-cs336-assignment2-systems/.venv/lib/python3.12/site-packages/triton/language/standard.py":170:0)
#loc82 = loc("/home/rolph/projects/stanford-cs336-assignment2-systems/.venv/lib/python3.12/site-packages/triton/language/standard.py":162:0)
#loc86 = loc("/home/rolph/projects/stanford-cs336-assignment2-systems/.venv/lib/python3.12/site-packages/triton/language/standard.py":265:0)
#loc90 = loc("/home/rolph/projects/stanford-cs336-assignment2-systems/.venv/lib/python3.12/site-packages/triton/language/standard.py":255:0)
module {
  tt.func public @_flash_fwd_kernel(%arg0: !tt.ptr<f32> loc("/home/rolph/projects/stanford-cs336-assignment2-systems/triton_mlir.py":75:0), %arg1: !tt.ptr<f32> loc("/home/rolph/projects/stanford-cs336-assignment2-systems/triton_mlir.py":75:0), %arg2: !tt.ptr<f32> loc("/home/rolph/projects/stanford-cs336-assignment2-systems/triton_mlir.py":75:0), %arg3: !tt.ptr<f32> loc("/home/rolph/projects/stanford-cs336-assignment2-systems/triton_mlir.py":75:0), %arg4: !tt.ptr<f32> loc("/home/rolph/projects/stanford-cs336-assignment2-systems/triton_mlir.py":75:0), %arg5: i32 loc("/home/rolph/projects/stanford-cs336-assignment2-systems/triton_mlir.py":75:0), %arg6: i32 loc("/home/rolph/projects/stanford-cs336-assignment2-systems/triton_mlir.py":75:0), %arg7: i32 loc("/home/rolph/projects/stanford-cs336-assignment2-systems/triton_mlir.py":75:0), %arg8: i32 loc("/home/rolph/projects/stanford-cs336-assignment2-systems/triton_mlir.py":75:0), %arg9: i32 loc("/home/rolph/projects/stanford-cs336-assignment2-systems/triton_mlir.py":75:0), %arg10: i32 loc("/home/rolph/projects/stanford-cs336-assignment2-systems/triton_mlir.py":75:0), %arg11: i32 loc("/home/rolph/projects/stanford-cs336-assignment2-systems/triton_mlir.py":75:0), %arg12: i32 loc("/home/rolph/projects/stanford-cs336-assignment2-systems/triton_mlir.py":75:0), %arg13: i32 loc("/home/rolph/projects/stanford-cs336-assignment2-systems/triton_mlir.py":75:0), %arg14: i32 loc("/home/rolph/projects/stanford-cs336-assignment2-systems/triton_mlir.py":75:0), %arg15: i32 loc("/home/rolph/projects/stanford-cs336-assignment2-systems/triton_mlir.py":75:0), %arg16: i32 loc("/home/rolph/projects/stanford-cs336-assignment2-systems/triton_mlir.py":75:0), %arg17: i32 loc("/home/rolph/projects/stanford-cs336-assignment2-systems/triton_mlir.py":75:0), %arg18: i32 loc("/home/rolph/projects/stanford-cs336-assignment2-systems/triton_mlir.py":75:0), %arg19: i32 loc("/home/rolph/projects/stanford-cs336-assignment2-systems/triton_mlir.py":75:0), %arg20: i32 loc("/home/rolph/projects/stanford-cs336-assignment2-systems/triton_mlir.py":75:0), %arg21: f32 loc("/home/rolph/projects/stanford-cs336-assignment2-systems/triton_mlir.py":75:0), %arg22: i1 loc("/home/rolph/projects/stanford-cs336-assignment2-systems/triton_mlir.py":75:0)) attributes {noinline = false} {
    %0 = tt.get_program_id x : i32 loc(#loc1)
    %1 = tt.get_program_id y : i32 loc(#loc2)
    %c16_i32 = arith.constant 16 : i32 loc(#loc3)
    %c16_i32_0 = arith.constant 16 : i32 loc(#loc3)
    %2 = arith.extsi %0 : i32 to i64 loc(#loc3)
    %3 = arith.extsi %c16_i32_0 : i32 to i64 loc(#loc3)
    %4 = arith.muli %2, %3 : i64 loc(#loc3)
    %c2147483647_i64 = arith.constant 2147483647 : i64 loc(#loc3)
    %c-2147483648_i64 = arith.constant -2147483648 : i64 loc(#loc3)
    %5 = arith.cmpi sle, %4, %c2147483647_i64 : i64 loc(#loc3)
    %6 = arith.cmpi sge, %4, %c-2147483648_i64 : i64 loc(#loc3)
    %7 = arith.andi %5, %6 : i1 loc(#loc3)
    %8 = arith.muli %0, %c16_i32_0 : i32 loc(#loc3)
    %9 = arith.extsi %1 : i32 to i64 loc(#loc4)
    %10 = arith.extsi %arg5 : i32 to i64 loc(#loc4)
    %11 = arith.muli %9, %10 : i64 loc(#loc4)
    %c2147483647_i64_1 = arith.constant 2147483647 : i64 loc(#loc4)
    %c-2147483648_i64_2 = arith.constant -2147483648 : i64 loc(#loc4)
    %12 = arith.cmpi sle, %11, %c2147483647_i64_1 : i64 loc(#loc4)
    %13 = arith.cmpi sge, %11, %c-2147483648_i64_2 : i64 loc(#loc4)
    %14 = arith.andi %12, %13 : i1 loc(#loc4)
    %15 = arith.muli %1, %arg5 : i32 loc(#loc4)
    %16 = tt.addptr %arg0, %15 : !tt.ptr<f32>, i32 loc(#loc5)
    %17 = arith.extsi %arg19 : i32 to i64 loc(#loc6)
    %c128_i64 = arith.constant 128 : i64 loc(#loc6)
    %18 = arith.extsi %arg6 : i32 to i64 loc(#loc6)
    %19 = arith.extsi %arg7 : i32 to i64 loc(#loc6)
    %c0_i32 = arith.constant 0 : i32 loc(#loc6)
    %20 = tt.make_tensor_ptr %16, [%17, %c128_i64], [%18, %19], [%8, %c0_i32] {order = array<i32: 1, 0>} : <tensor<16x128xf32>> loc(#loc6)
    %21 = arith.extsi %1 : i32 to i64 loc(#loc7)
    %22 = arith.extsi %arg8 : i32 to i64 loc(#loc7)
    %23 = arith.muli %21, %22 : i64 loc(#loc7)
    %c2147483647_i64_3 = arith.constant 2147483647 : i64 loc(#loc7)
    %c-2147483648_i64_4 = arith.constant -2147483648 : i64 loc(#loc7)
    %24 = arith.cmpi sle, %23, %c2147483647_i64_3 : i64 loc(#loc7)
    %25 = arith.cmpi sge, %23, %c-2147483648_i64_4 : i64 loc(#loc7)
    %26 = arith.andi %24, %25 : i1 loc(#loc7)
    %27 = arith.muli %1, %arg8 : i32 loc(#loc7)
    %28 = tt.addptr %arg1, %27 : !tt.ptr<f32>, i32 loc(#loc8)
    %29 = arith.extsi %arg20 : i32 to i64 loc(#loc9)
    %c128_i64_5 = arith.constant 128 : i64 loc(#loc9)
    %30 = arith.extsi %arg9 : i32 to i64 loc(#loc9)
    %31 = arith.extsi %arg10 : i32 to i64 loc(#loc9)
    %c0_i32_6 = arith.constant 0 : i32 loc(#loc9)
    %c0_i32_7 = arith.constant 0 : i32 loc(#loc9)
    %32 = tt.make_tensor_ptr %28, [%29, %c128_i64_5], [%30, %31], [%c0_i32_6, %c0_i32_7] {order = array<i32: 1, 0>} : <tensor<16x128xf32>> loc(#loc9)
    %33 = arith.extsi %1 : i32 to i64 loc(#loc10)
    %34 = arith.extsi %arg11 : i32 to i64 loc(#loc10)
    %35 = arith.muli %33, %34 : i64 loc(#loc10)
    %c2147483647_i64_8 = arith.constant 2147483647 : i64 loc(#loc10)
    %c-2147483648_i64_9 = arith.constant -2147483648 : i64 loc(#loc10)
    %36 = arith.cmpi sle, %35, %c2147483647_i64_8 : i64 loc(#loc10)
    %37 = arith.cmpi sge, %35, %c-2147483648_i64_9 : i64 loc(#loc10)
    %38 = arith.andi %36, %37 : i1 loc(#loc10)
    %39 = arith.muli %1, %arg11 : i32 loc(#loc10)
    %40 = tt.addptr %arg2, %39 : !tt.ptr<f32>, i32 loc(#loc11)
    %41 = arith.extsi %arg20 : i32 to i64 loc(#loc12)
    %c128_i64_10 = arith.constant 128 : i64 loc(#loc12)
    %42 = arith.extsi %arg12 : i32 to i64 loc(#loc12)
    %43 = arith.extsi %arg13 : i32 to i64 loc(#loc12)
    %c0_i32_11 = arith.constant 0 : i32 loc(#loc12)
    %c0_i32_12 = arith.constant 0 : i32 loc(#loc12)
    %44 = tt.make_tensor_ptr %40, [%41, %c128_i64_10], [%42, %43], [%c0_i32_11, %c0_i32_12] {order = array<i32: 1, 0>} : <tensor<16x128xf32>> loc(#loc12)
    %c16_i32_13 = arith.constant 16 : i32 loc(#loc13)
    %c16_i32_14 = arith.constant 16 : i32 loc(#loc13)
    %45 = arith.extsi %0 : i32 to i64 loc(#loc13)
    %46 = arith.extsi %c16_i32_14 : i32 to i64 loc(#loc13)
    %47 = arith.muli %45, %46 : i64 loc(#loc13)
    %c2147483647_i64_15 = arith.constant 2147483647 : i64 loc(#loc13)
    %c-2147483648_i64_16 = arith.constant -2147483648 : i64 loc(#loc13)
    %48 = arith.cmpi sle, %47, %c2147483647_i64_15 : i64 loc(#loc13)
    %49 = arith.cmpi sge, %47, %c-2147483648_i64_16 : i64 loc(#loc13)
    %50 = arith.andi %48, %49 : i1 loc(#loc13)
    %51 = arith.muli %0, %c16_i32_14 : i32 loc(#loc13)
    %52 = arith.extsi %1 : i32 to i64 loc(#loc14)
    %53 = arith.extsi %arg5 : i32 to i64 loc(#loc14)
    %54 = arith.muli %52, %53 : i64 loc(#loc14)
    %c2147483647_i64_17 = arith.constant 2147483647 : i64 loc(#loc14)
    %c-2147483648_i64_18 = arith.constant -2147483648 : i64 loc(#loc14)
    %55 = arith.cmpi sle, %54, %c2147483647_i64_17 : i64 loc(#loc14)
    %56 = arith.cmpi sge, %54, %c-2147483648_i64_18 : i64 loc(#loc14)
    %57 = arith.andi %55, %56 : i1 loc(#loc14)
    %58 = arith.muli %1, %arg5 : i32 loc(#loc14)
    %59 = tt.addptr %arg3, %58 : !tt.ptr<f32>, i32 loc(#loc15)
    %60 = arith.extsi %arg19 : i32 to i64 loc(#loc16)
    %c128_i64_19 = arith.constant 128 : i64 loc(#loc16)
    %61 = arith.extsi %arg15 : i32 to i64 loc(#loc16)
    %62 = arith.extsi %arg16 : i32 to i64 loc(#loc16)
    %c0_i32_20 = arith.constant 0 : i32 loc(#loc16)
    %63 = tt.make_tensor_ptr %59, [%60, %c128_i64_19], [%61, %62], [%51, %c0_i32_20] {order = array<i32: 1, 0>} : <tensor<16x128xf32>> loc(#loc16)
    %c16_i32_21 = arith.constant 16 : i32 loc(#loc17)
    %c16_i32_22 = arith.constant 16 : i32 loc(#loc17)
    %64 = arith.extsi %0 : i32 to i64 loc(#loc17)
    %65 = arith.extsi %c16_i32_22 : i32 to i64 loc(#loc17)
    %66 = arith.muli %64, %65 : i64 loc(#loc17)
    %c2147483647_i64_23 = arith.constant 2147483647 : i64 loc(#loc17)
    %c-2147483648_i64_24 = arith.constant -2147483648 : i64 loc(#loc17)
    %67 = arith.cmpi sle, %66, %c2147483647_i64_23 : i64 loc(#loc17)
    %68 = arith.cmpi sge, %66, %c-2147483648_i64_24 : i64 loc(#loc17)
    %69 = arith.andi %67, %68 : i1 loc(#loc17)
    %70 = arith.muli %0, %c16_i32_22 : i32 loc(#loc17)
    %71 = arith.extsi %1 : i32 to i64 loc(#loc18)
    %72 = arith.extsi %arg17 : i32 to i64 loc(#loc18)
    %73 = arith.muli %71, %72 : i64 loc(#loc18)
    %c2147483647_i64_25 = arith.constant 2147483647 : i64 loc(#loc18)
    %c-2147483648_i64_26 = arith.constant -2147483648 : i64 loc(#loc18)
    %74 = arith.cmpi sle, %73, %c2147483647_i64_25 : i64 loc(#loc18)
    %75 = arith.cmpi sge, %73, %c-2147483648_i64_26 : i64 loc(#loc18)
    %76 = arith.andi %74, %75 : i1 loc(#loc18)
    %77 = arith.muli %1, %arg17 : i32 loc(#loc18)
    %78 = tt.addptr %arg4, %77 : !tt.ptr<f32>, i32 loc(#loc19)
    %79 = arith.extsi %arg19 : i32 to i64 loc(#loc20)
    %80 = arith.extsi %arg18 : i32 to i64 loc(#loc20)
    %81 = tt.make_tensor_ptr %78, [%79], [%80], [%70] {order = array<i32: 0>} : <tensor<16xf32>> loc(#loc20)
    %82 = tt.call @cdiv__i32__1cconstexpr_16_(%arg20) : (i32) -> i32 loc(#loc21)
    %83 = tt.load %20 : !tt.ptr<tensor<16x128xf32>> loc(#loc22)
    %84 = tt.load %20 : !tt.ptr<tensor<16x128xf32>> loc(#loc22)
    %cst = arith.constant 0xFF800000 : f32 loc(#loc23)
    %cst_27 = arith.constant dense<0xFF800000> : tensor<16xf32> loc(#loc23)
    %cst_28 = arith.constant 0xFF800000 : f32 loc(#loc23)
    %cst_29 = arith.constant dense<0xFF800000> : tensor<16xf32> loc(#loc23)
    %85 = tt.call @"zeros____0cconstexpr_(constexpr_16_, constexpr_128_)__1cconstexpr_fp32_"() : () -> tensor<16x128xf32> loc(#loc24)
    %86 = tt.call @"zeros____0cconstexpr_(constexpr_16_, constexpr_128_)__1cconstexpr_fp32_"() : () -> tensor<16x128xf32> loc(#loc24)
    %87 = tt.call @"zeros____0cconstexpr_(constexpr_16_,)__1cconstexpr_fp32_"() : () -> tensor<16xf32> loc(#loc25)
    %88 = tt.call @"zeros____0cconstexpr_(constexpr_16_,)__1cconstexpr_fp32_"() : () -> tensor<16xf32> loc(#loc25)
    %c16_i32_30 = arith.constant 16 : i32 loc(#loc26)
    %c16_i32_31 = arith.constant 16 : i32 loc(#loc26)
    %89 = arith.extsi %0 : i32 to i64 loc(#loc26)
    %90 = arith.extsi %c16_i32_31 : i32 to i64 loc(#loc26)
    %91 = arith.muli %89, %90 : i64 loc(#loc26)
    %c2147483647_i64_32 = arith.constant 2147483647 : i64 loc(#loc26)
    %c-2147483648_i64_33 = arith.constant -2147483648 : i64 loc(#loc26)
    %92 = arith.cmpi sle, %91, %c2147483647_i64_32 : i64 loc(#loc26)
    %93 = arith.cmpi sge, %91, %c-2147483648_i64_33 : i64 loc(#loc26)
    %94 = arith.andi %92, %93 : i1 loc(#loc26)
    %95 = arith.muli %0, %c16_i32_31 : i32 loc(#loc26)
    %96 = tt.make_range {end = 16 : i32, start = 0 : i32} : tensor<16xi32> loc(#loc27)
    %97 = tt.splat %95 : i32 -> tensor<16xi32> loc(#loc28)
    %98 = arith.extsi %97 : tensor<16xi32> to tensor<16xi64> loc(#loc28)
    %99 = arith.extsi %96 : tensor<16xi32> to tensor<16xi64> loc(#loc28)
    %100 = arith.addi %98, %99 : tensor<16xi64> loc(#loc28)
    %c2147483647_i64_34 = arith.constant 2147483647 : i64 loc(#loc28)
    %c-2147483648_i64_35 = arith.constant -2147483648 : i64 loc(#loc28)
    %cst_36 = arith.constant dense<2147483647> : tensor<16xi64> loc(#loc28)
    %101 = arith.cmpi sle, %100, %cst_36 : tensor<16xi64> loc(#loc28)
    %cst_37 = arith.constant dense<-2147483648> : tensor<16xi64> loc(#loc28)
    %102 = arith.cmpi sge, %100, %cst_37 : tensor<16xi64> loc(#loc28)
    %103 = arith.andi %101, %102 : tensor<16xi1> loc(#loc28)
    %104 = arith.addi %97, %96 : tensor<16xi32> loc(#loc28)
    %c0_i32_38 = arith.constant 0 : i32 loc(#loc29)
    %c1_i32 = arith.constant 1 : i32 loc(#loc29)
    %105 = arith.bitcast %c0_i32_38 : i32 to i32 loc(#loc29)
    %106 = arith.bitcast %82 : i32 to i32 loc(#loc29)
    %107 = arith.bitcast %c1_i32 : i32 to i32 loc(#loc29)
    %108 = ub.poison : i32 loc(#loc29)
    %109:5 = scf.for %arg23 = %105 to %106 step %107 iter_args(%arg24 = %cst_29, %arg25 = %88, %arg26 = %86, %arg27 = %32, %arg28 = %44) -> (tensor<16xf32>, tensor<16xf32>, tensor<16x128xf32>, !tt.ptr<tensor<16x128xf32>>, !tt.ptr<tensor<16x128xf32>>)  : i32 {
      %115 = tt.load %arg27 : !tt.ptr<tensor<16x128xf32>> loc(#loc30)
      %116 = tt.load %arg27 : !tt.ptr<tensor<16x128xf32>> loc(#loc30)
      %117 = tt.load %arg28 : !tt.ptr<tensor<16x128xf32>> loc(#loc31)
      %118 = tt.load %arg28 : !tt.ptr<tensor<16x128xf32>> loc(#loc31)
      %119 = tt.trans %116 {order = array<i32: 1, 0>} : tensor<16x128xf32> -> tensor<128x16xf32> loc(#loc32)
      %cst_39 = arith.constant 0.000000e+00 : f32 loc(#loc33)
      %cst_40 = arith.constant dense<0.000000e+00> : tensor<16x16xf32> loc(#loc33)
      %120 = tt.dot %84, %119, %cst_40, inputPrecision = tf32 : tensor<16x128xf32> * tensor<128x16xf32> -> tensor<16x16xf32> loc(#loc33)
      %121 = tt.splat %arg21 : f32 -> tensor<16x16xf32> loc(#loc34)
      %122 = arith.divf %120, %121 : tensor<16x16xf32> loc(#loc34)
      %123 = tt.trans %116 {order = array<i32: 1, 0>} : tensor<16x128xf32> -> tensor<128x16xf32> loc(#loc32)
      %cst_41 = arith.constant 0.000000e+00 : f32 loc(#loc33)
      %cst_42 = arith.constant dense<0.000000e+00> : tensor<16x16xf32> loc(#loc33)
      %124 = tt.dot %84, %123, %cst_42, inputPrecision = tf32 : tensor<16x128xf32> * tensor<128x16xf32> -> tensor<16x16xf32> loc(#loc33)
      %125 = tt.splat %arg21 : f32 -> tensor<16x16xf32> loc(#loc34)
      %126 = arith.divf %124, %125 : tensor<16x16xf32> loc(#loc34)
      %127 = scf.if %arg22 -> (tensor<16x16xf32>) {
        %c16_i32_49 = arith.constant 16 : i32 loc(#loc36)
        %c16_i32_50 = arith.constant 16 : i32 loc(#loc36)
        %146 = arith.extsi %arg23 : i32 to i64 loc(#loc36)
        %147 = arith.extsi %c16_i32_50 : i32 to i64 loc(#loc36)
        %148 = arith.muli %146, %147 : i64 loc(#loc36)
        %c2147483647_i64_51 = arith.constant 2147483647 : i64 loc(#loc36)
        %c-2147483648_i64_52 = arith.constant -2147483648 : i64 loc(#loc36)
        %149 = arith.cmpi sle, %148, %c2147483647_i64_51 : i64 loc(#loc36)
        %150 = arith.cmpi sge, %148, %c-2147483648_i64_52 : i64 loc(#loc36)
        %151 = arith.andi %149, %150 : i1 loc(#loc36)
        %152 = arith.muli %arg23, %c16_i32_50 : i32 loc(#loc36)
        %153 = tt.make_range {end = 16 : i32, start = 0 : i32} : tensor<16xi32> loc(#loc37)
        %154 = tt.splat %152 : i32 -> tensor<16xi32> loc(#loc38)
        %155 = arith.extsi %154 : tensor<16xi32> to tensor<16xi64> loc(#loc38)
        %156 = arith.extsi %153 : tensor<16xi32> to tensor<16xi64> loc(#loc38)
        %157 = arith.addi %155, %156 : tensor<16xi64> loc(#loc38)
        %c2147483647_i64_53 = arith.constant 2147483647 : i64 loc(#loc38)
        %c-2147483648_i64_54 = arith.constant -2147483648 : i64 loc(#loc38)
        %cst_55 = arith.constant dense<2147483647> : tensor<16xi64> loc(#loc38)
        %158 = arith.cmpi sle, %157, %cst_55 : tensor<16xi64> loc(#loc38)
        %cst_56 = arith.constant dense<-2147483648> : tensor<16xi64> loc(#loc38)
        %159 = arith.cmpi sge, %157, %cst_56 : tensor<16xi64> loc(#loc38)
        %160 = arith.andi %158, %159 : tensor<16xi1> loc(#loc38)
        %161 = arith.addi %154, %153 : tensor<16xi32> loc(#loc38)
        %162 = tt.expand_dims %104 {axis = 1 : i32} : tensor<16xi32> -> tensor<16x1xi32> loc(#loc39)
        %163 = tt.expand_dims %161 {axis = 0 : i32} : tensor<16xi32> -> tensor<1x16xi32> loc(#loc40)
        %164 = tt.broadcast %162 : tensor<16x1xi32> -> tensor<16x16xi32> loc(#loc41)
        %165 = tt.broadcast %163 : tensor<1x16xi32> -> tensor<16x16xi32> loc(#loc41)
        %166 = arith.cmpi sge, %164, %165 : tensor<16x16xi32> loc(#loc41)
        %cst_57 = arith.constant 0xFF800000 : f32 loc(#loc42)
        %cst_58 = arith.constant 0xFF800000 : f32 loc(#loc42)
        %cst_59 = arith.constant dense<0xFF800000> : tensor<16x16xf32> loc(#loc42)
        %167 = arith.select %166, %126, %cst_59 : tensor<16x16xi1>, tensor<16x16xf32> loc(#loc42)
        scf.yield %167 : tensor<16x16xf32> loc(#loc42)
      } else {
        scf.yield %126 : tensor<16x16xf32> loc(#loc43)
      } loc(#loc35)
      %128 = tt.call @max__fp32S16_16S__1cconstexpr_1__2cconstexpr_False__3cconstexpr_True__4cconstexpr_False_(%127) : (tensor<16x16xf32>) -> tensor<16xf32> loc(#loc44)
      %129 = arith.maxnumf %arg24, %128 : tensor<16xf32> loc(#loc45)
      %130 = tt.expand_dims %129 {axis = 1 : i32} : tensor<16xf32> -> tensor<16x1xf32> loc(#loc46)
      %131 = tt.broadcast %130 : tensor<16x1xf32> -> tensor<16x16xf32> loc(#loc47)
      %132 = arith.subf %127, %131 : tensor<16x16xf32> loc(#loc47)
      %133 = math.exp %132 : tensor<16x16xf32> loc(#loc48)
      %134 = arith.subf %arg24, %129 : tensor<16xf32> loc(#loc49)
      %135 = math.exp %134 : tensor<16xf32> loc(#loc50)
      %136 = arith.mulf %135, %arg25 : tensor<16xf32> loc(#loc51)
      %137 = tt.call @sum__fp32S16_16S__1cconstexpr_1__2cconstexpr_False_(%133) : (tensor<16x16xf32>) -> tensor<16xf32> loc(#loc52)
      %138 = arith.addf %136, %137 : tensor<16xf32> loc(#loc53)
      %139 = tt.expand_dims %135 {axis = 1 : i32} : tensor<16xf32> -> tensor<16x1xf32> loc(#loc54)
      %140 = tt.broadcast %139 : tensor<16x1xf32> -> tensor<16x128xf32> loc(#loc55)
      %141 = arith.mulf %140, %arg26 : tensor<16x128xf32> loc(#loc55)
      %cst_43 = arith.constant 0.000000e+00 : f32 loc(#loc56)
      %cst_44 = arith.constant dense<0.000000e+00> : tensor<16x128xf32> loc(#loc56)
      %142 = tt.dot %133, %118, %cst_44, inputPrecision = tf32 : tensor<16x16xf32> * tensor<16x128xf32> -> tensor<16x128xf32> loc(#loc56)
      %143 = arith.addf %141, %142 : tensor<16x128xf32> loc(#loc57)
      %c16_i32_45 = arith.constant 16 : i32 loc(#loc58)
      %c0_i32_46 = arith.constant 0 : i32 loc(#loc58)
      %144 = tt.advance %arg27, [%c16_i32_45, %c0_i32_46] : <tensor<16x128xf32>> loc(#loc58)
      %c16_i32_47 = arith.constant 16 : i32 loc(#loc59)
      %c0_i32_48 = arith.constant 0 : i32 loc(#loc59)
      %145 = tt.advance %arg28, [%c16_i32_47, %c0_i32_48] : <tensor<16x128xf32>> loc(#loc59)
      scf.yield %129, %138, %143, %144, %145 : tensor<16xf32>, tensor<16xf32>, tensor<16x128xf32>, !tt.ptr<tensor<16x128xf32>>, !tt.ptr<tensor<16x128xf32>> loc(#loc60)
    } loc(#loc29)
    %110 = tt.expand_dims %109#1 {axis = 1 : i32} : tensor<16xf32> -> tensor<16x1xf32> loc(#loc61)
    %111 = tt.broadcast %110 : tensor<16x1xf32> -> tensor<16x128xf32> loc(#loc62)
    %112 = arith.divf %109#2, %111 : tensor<16x128xf32> loc(#loc62)
    %113 = math.log %109#1 : tensor<16xf32> loc(#loc63)
    %114 = arith.addf %109#0, %113 : tensor<16xf32> loc(#loc64)
    tt.store %63, %112 : !tt.ptr<tensor<16x128xf32>> loc(#loc65)
    tt.store %81, %114 : !tt.ptr<tensor<16xf32>> loc(#loc66)
    tt.return loc(#loc67)
  } loc(#loc)
  tt.func private @cdiv__i32__1cconstexpr_16_(%arg0: i32 loc("/home/rolph/projects/stanford-cs336-assignment2-systems/.venv/lib/python3.12/site-packages/triton/language/standard.py":31:0)) -> i32 attributes {noinline = false} {
    %c16_i32 = arith.constant 16 : i32 loc(#loc69)
    %c16_i32_0 = arith.constant 16 : i32 loc(#loc69)
    %0 = arith.extsi %arg0 : i32 to i64 loc(#loc69)
    %1 = arith.extsi %c16_i32_0 : i32 to i64 loc(#loc69)
    %2 = arith.addi %0, %1 : i64 loc(#loc69)
    %c2147483647_i64 = arith.constant 2147483647 : i64 loc(#loc69)
    %c-2147483648_i64 = arith.constant -2147483648 : i64 loc(#loc69)
    %3 = arith.cmpi sle, %2, %c2147483647_i64 : i64 loc(#loc69)
    %4 = arith.cmpi sge, %2, %c-2147483648_i64 : i64 loc(#loc69)
    %5 = arith.andi %3, %4 : i1 loc(#loc69)
    %6 = arith.addi %arg0, %c16_i32_0 : i32 loc(#loc69)
    %c1_i32 = arith.constant 1 : i32 loc(#loc70)
    %c1_i32_1 = arith.constant 1 : i32 loc(#loc70)
    %7 = arith.extsi %6 : i32 to i64 loc(#loc70)
    %8 = arith.extsi %c1_i32_1 : i32 to i64 loc(#loc70)
    %9 = arith.subi %7, %8 : i64 loc(#loc70)
    %c2147483647_i64_2 = arith.constant 2147483647 : i64 loc(#loc70)
    %c-2147483648_i64_3 = arith.constant -2147483648 : i64 loc(#loc70)
    %10 = arith.cmpi sle, %9, %c2147483647_i64_2 : i64 loc(#loc70)
    %11 = arith.cmpi sge, %9, %c-2147483648_i64_3 : i64 loc(#loc70)
    %12 = arith.andi %10, %11 : i1 loc(#loc70)
    %13 = arith.subi %6, %c1_i32_1 : i32 loc(#loc70)
    %c16_i32_4 = arith.constant 16 : i32 loc(#loc71)
    %c16_i32_5 = arith.constant 16 : i32 loc(#loc71)
    %14 = arith.divsi %13, %c16_i32_5 : i32 loc(#loc71)
    tt.return %14 : i32 loc(#loc72)
  ^bb1:  // no predecessors
    %15 = ub.poison : i32 loc(#loc73)
    tt.return %15 : i32 loc(#loc73)
  } loc(#loc68)
  tt.func private @"zeros____0cconstexpr_(constexpr_16_, constexpr_128_)__1cconstexpr_fp32_"() -> tensor<16x128xf32> attributes {noinline = false} {
    %cst = arith.constant 0.000000e+00 : f32 loc(#loc75)
    %cst_0 = arith.constant dense<0.000000e+00> : tensor<16x128xf32> loc(#loc75)
    tt.return %cst_0 : tensor<16x128xf32> loc(#loc76)
  ^bb1:  // no predecessors
    %0 = ub.poison : tensor<16x128xf32> loc(#loc77)
    tt.return %0 : tensor<16x128xf32> loc(#loc77)
  } loc(#loc74)
  tt.func private @"zeros____0cconstexpr_(constexpr_16_,)__1cconstexpr_fp32_"() -> tensor<16xf32> attributes {noinline = false} {
    %cst = arith.constant 0.000000e+00 : f32 loc(#loc75)
    %cst_0 = arith.constant dense<0.000000e+00> : tensor<16xf32> loc(#loc75)
    tt.return %cst_0 : tensor<16xf32> loc(#loc76)
  ^bb1:  // no predecessors
    %0 = ub.poison : tensor<16xf32> loc(#loc77)
    tt.return %0 : tensor<16xf32> loc(#loc77)
  } loc(#loc74)
  tt.func private @max__fp32S16_16S__1cconstexpr_1__2cconstexpr_False__3cconstexpr_True__4cconstexpr_False_(%arg0: tensor<16x16xf32> loc("/home/rolph/projects/stanford-cs336-assignment2-systems/.venv/lib/python3.12/site-packages/triton/language/standard.py":170:0)) -> tensor<16xf32> attributes {noinline = false} {
    %0 = "tt.reduce"(%arg0) <{axis = 1 : i32}> ({
    ^bb0(%arg1: f32 loc(unknown), %arg2: f32 loc(unknown)):
      %2 = tt.call @_elementwise_max__fp32_fp32__(%arg1, %arg2) : (f32, f32) -> f32 loc(#loc79)
      tt.reduce.return %2 : f32 loc(#loc79)
    }) : (tensor<16x16xf32>) -> tensor<16xf32> loc(#loc79)
    tt.return %0 : tensor<16xf32> loc(#loc80)
  ^bb1:  // no predecessors
    %1 = ub.poison : tensor<16xf32> loc(#loc81)
    tt.return %1 : tensor<16xf32> loc(#loc81)
  } loc(#loc78)
  tt.func private @_elementwise_max__fp32_fp32__(%arg0: f32 loc("/home/rolph/projects/stanford-cs336-assignment2-systems/.venv/lib/python3.12/site-packages/triton/language/standard.py":162:0), %arg1: f32 loc("/home/rolph/projects/stanford-cs336-assignment2-systems/.venv/lib/python3.12/site-packages/triton/language/standard.py":162:0)) -> f32 attributes {noinline = false} {
    %0 = arith.maxnumf %arg0, %arg1 : f32 loc(#loc83)
    tt.return %0 : f32 loc(#loc84)
  ^bb1:  // no predecessors
    %1 = ub.poison : f32 loc(#loc85)
    tt.return %1 : f32 loc(#loc85)
  } loc(#loc82)
  tt.func private @sum__fp32S16_16S__1cconstexpr_1__2cconstexpr_False_(%arg0: tensor<16x16xf32> loc("/home/rolph/projects/stanford-cs336-assignment2-systems/.venv/lib/python3.12/site-packages/triton/language/standard.py":265:0)) -> tensor<16xf32> attributes {noinline = false} {
    %0 = "tt.reduce"(%arg0) <{axis = 1 : i32}> ({
    ^bb0(%arg1: f32 loc(unknown), %arg2: f32 loc(unknown)):
      %2 = tt.call @_sum_combine__fp32_fp32__(%arg1, %arg2) : (f32, f32) -> f32 loc(#loc87)
      tt.reduce.return %2 : f32 loc(#loc87)
    }) : (tensor<16x16xf32>) -> tensor<16xf32> loc(#loc87)
    tt.return %0 : tensor<16xf32> loc(#loc88)
  ^bb1:  // no predecessors
    %1 = ub.poison : tensor<16xf32> loc(#loc89)
    tt.return %1 : tensor<16xf32> loc(#loc89)
  } loc(#loc86)
  tt.func private @_sum_combine__fp32_fp32__(%arg0: f32 loc("/home/rolph/projects/stanford-cs336-assignment2-systems/.venv/lib/python3.12/site-packages/triton/language/standard.py":255:0), %arg1: f32 loc("/home/rolph/projects/stanford-cs336-assignment2-systems/.venv/lib/python3.12/site-packages/triton/language/standard.py":255:0)) -> f32 attributes {noinline = false} {
    %0 = arith.addf %arg0, %arg1 : f32 loc(#loc91)
    tt.return %0 : f32 loc(#loc92)
  ^bb1:  // no predecessors
    %1 = ub.poison : f32 loc(#loc93)
    tt.return %1 : f32 loc(#loc93)
  } loc(#loc90)
} loc(#loc)
#loc1 = loc("/home/rolph/projects/stanford-cs336-assignment2-systems/triton_mlir.py":93:30)
#loc2 = loc("/home/rolph/projects/stanford-cs336-assignment2-systems/triton_mlir.py":94:30)
#loc3 = loc("/home/rolph/projects/stanford-cs336-assignment2-systems/triton_mlir.py":100:29)
#loc4 = loc("/home/rolph/projects/stanford-cs336-assignment2-systems/triton_mlir.py":97:28)
#loc5 = loc("/home/rolph/projects/stanford-cs336-assignment2-systems/triton_mlir.py":97:14)
#loc6 = loc("/home/rolph/projects/stanford-cs336-assignment2-systems/triton_mlir.py":97:6)
#loc7 = loc("/home/rolph/projects/stanford-cs336-assignment2-systems/triton_mlir.py":106:28)
#loc8 = loc("/home/rolph/projects/stanford-cs336-assignment2-systems/triton_mlir.py":106:14)
#loc9 = loc("/home/rolph/projects/stanford-cs336-assignment2-systems/triton_mlir.py":106:6)
#loc10 = loc("/home/rolph/projects/stanford-cs336-assignment2-systems/triton_mlir.py":115:28)
#loc11 = loc("/home/rolph/projects/stanford-cs336-assignment2-systems/triton_mlir.py":115:14)
#loc12 = loc("/home/rolph/projects/stanford-cs336-assignment2-systems/triton_mlir.py":115:6)
#loc13 = loc("/home/rolph/projects/stanford-cs336-assignment2-systems/triton_mlir.py":127:29)
#loc14 = loc("/home/rolph/projects/stanford-cs336-assignment2-systems/triton_mlir.py":124:28)
#loc15 = loc("/home/rolph/projects/stanford-cs336-assignment2-systems/triton_mlir.py":124:14)
#loc16 = loc("/home/rolph/projects/stanford-cs336-assignment2-systems/triton_mlir.py":124:6)
#loc17 = loc("/home/rolph/projects/stanford-cs336-assignment2-systems/triton_mlir.py":136:29)
#loc18 = loc("/home/rolph/projects/stanford-cs336-assignment2-systems/triton_mlir.py":133:28)
#loc19 = loc("/home/rolph/projects/stanford-cs336-assignment2-systems/triton_mlir.py":133:14)
#loc20 = loc("/home/rolph/projects/stanford-cs336-assignment2-systems/triton_mlir.py":133:6)
#loc21 = loc("/home/rolph/projects/stanford-cs336-assignment2-systems/triton_mlir.py":141:23)
#loc22 = loc("/home/rolph/projects/stanford-cs336-assignment2-systems/triton_mlir.py":143:31)
#loc23 = loc("/home/rolph/projects/stanford-cs336-assignment2-systems/triton_mlir.py":144:44)
#loc24 = loc("/home/rolph/projects/stanford-cs336-assignment2-systems/triton_mlir.py":145:29)
#loc25 = loc("/home/rolph/projects/stanford-cs336-assignment2-systems/triton_mlir.py":146:29)
#loc26 = loc("/home/rolph/projects/stanford-cs336-assignment2-systems/triton_mlir.py":147:25)
#loc27 = loc("/home/rolph/projects/stanford-cs336-assignment2-systems/triton_mlir.py":147:53)
#loc28 = loc("/home/rolph/projects/stanford-cs336-assignment2-systems/triton_mlir.py":147:40)
#loc29 = loc("/home/rolph/projects/stanford-cs336-assignment2-systems/triton_mlir.py":148:17)
#loc30 = loc("/home/rolph/projects/stanford-cs336-assignment2-systems/triton_mlir.py":149:33)
#loc31 = loc("/home/rolph/projects/stanford-cs336-assignment2-systems/triton_mlir.py":150:33)
#loc32 = loc("/home/rolph/projects/stanford-cs336-assignment2-systems/triton_mlir.py":152:54)
#loc33 = loc("/home/rolph/projects/stanford-cs336-assignment2-systems/triton_mlir.py":152:38)
#loc34 = loc("/home/rolph/projects/stanford-cs336-assignment2-systems/triton_mlir.py":152:60)
#loc35 = loc("/home/rolph/projects/stanford-cs336-assignment2-systems/triton_mlir.py":154:7)
#loc36 = loc("/home/rolph/projects/stanford-cs336-assignment2-systems/triton_mlir.py":155:18)
#loc37 = loc("/home/rolph/projects/stanford-cs336-assignment2-systems/triton_mlir.py":155:45)
#loc38 = loc("/home/rolph/projects/stanford-cs336-assignment2-systems/triton_mlir.py":155:32)
#loc39 = loc("/home/rolph/projects/stanford-cs336-assignment2-systems/triton_mlir.py":156:26)
#loc40 = loc("/home/rolph/projects/stanford-cs336-assignment2-systems/triton_mlir.py":156:44)
#loc41 = loc("/home/rolph/projects/stanford-cs336-assignment2-systems/triton_mlir.py":156:38)
#loc42 = loc("/home/rolph/projects/stanford-cs336-assignment2-systems/triton_mlir.py":157:41)
#loc44 = loc("/home/rolph/projects/stanford-cs336-assignment2-systems/triton_mlir.py":159:30)
#loc45 = loc("/home/rolph/projects/stanford-cs336-assignment2-systems/triton_mlir.py":161:33)
#loc46 = loc("/home/rolph/projects/stanford-cs336-assignment2-systems/triton_mlir.py":163:34)
#loc47 = loc("/home/rolph/projects/stanford-cs336-assignment2-systems/triton_mlir.py":163:29)
#loc48 = loc("/home/rolph/projects/stanford-cs336-assignment2-systems/triton_mlir.py":163:22)
#loc49 = loc("/home/rolph/projects/stanford-cs336-assignment2-systems/triton_mlir.py":164:35)
#loc50 = loc("/home/rolph/projects/stanford-cs336-assignment2-systems/triton_mlir.py":164:23)
#loc51 = loc("/home/rolph/projects/stanford-cs336-assignment2-systems/triton_mlir.py":165:23)
#loc52 = loc("/home/rolph/projects/stanford-cs336-assignment2-systems/triton_mlir.py":165:47)
#loc53 = loc("/home/rolph/projects/stanford-cs336-assignment2-systems/triton_mlir.py":165:30)
#loc54 = loc("/home/rolph/projects/stanford-cs336-assignment2-systems/triton_mlir.py":167:22)
#loc55 = loc("/home/rolph/projects/stanford-cs336-assignment2-systems/triton_mlir.py":167:33)
#loc56 = loc("/home/rolph/projects/stanford-cs336-assignment2-systems/triton_mlir.py":167:58)
#loc57 = loc("/home/rolph/projects/stanford-cs336-assignment2-systems/triton_mlir.py":167:41)
#loc58 = loc("/home/rolph/projects/stanford-cs336-assignment2-systems/triton_mlir.py":170:38)
#loc59 = loc("/home/rolph/projects/stanford-cs336-assignment2-systems/triton_mlir.py":171:38)
#loc60 = loc("/home/rolph/projects/stanford-cs336-assignment2-systems/triton_mlir.py":171:4)
#loc61 = loc("/home/rolph/projects/stanford-cs336-assignment2-systems/triton_mlir.py":173:20)
#loc62 = loc("/home/rolph/projects/stanford-cs336-assignment2-systems/triton_mlir.py":173:15)
#loc63 = loc("/home/rolph/projects/stanford-cs336-assignment2-systems/triton_mlir.py":174:22)
#loc64 = loc("/home/rolph/projects/stanford-cs336-assignment2-systems/triton_mlir.py":174:15)
#loc65 = loc("/home/rolph/projects/stanford-cs336-assignment2-systems/triton_mlir.py":176:24)
#loc66 = loc("/home/rolph/projects/stanford-cs336-assignment2-systems/triton_mlir.py":177:24)
#loc67 = loc("/home/rolph/projects/stanford-cs336-assignment2-systems/triton_mlir.py":177:2)
#loc69 = loc("/home/rolph/projects/stanford-cs336-assignment2-systems/.venv/lib/python3.12/site-packages/triton/language/standard.py":40:16)
#loc70 = loc("/home/rolph/projects/stanford-cs336-assignment2-systems/.venv/lib/python3.12/site-packages/triton/language/standard.py":40:22)
#loc71 = loc("/home/rolph/projects/stanford-cs336-assignment2-systems/.venv/lib/python3.12/site-packages/triton/language/standard.py":40:28)
#loc72 = loc("/home/rolph/projects/stanford-cs336-assignment2-systems/.venv/lib/python3.12/site-packages/triton/language/standard.py":40:11)
#loc73 = loc("/home/rolph/projects/stanford-cs336-assignment2-systems/.venv/lib/python3.12/site-packages/triton/language/standard.py":40:4)
#loc74 = loc("/home/rolph/projects/stanford-cs336-assignment2-systems/.venv/lib/python3.12/site-packages/triton/language/standard.py":113:0)
#loc75 = loc("/home/rolph/projects/stanford-cs336-assignment2-systems/.venv/lib/python3.12/site-packages/triton/language/standard.py":122:31)
#loc76 = loc("/home/rolph/projects/stanford-cs336-assignment2-systems/.venv/lib/python3.12/site-packages/triton/language/standard.py":122:11)
#loc77 = loc("/home/rolph/projects/stanford-cs336-assignment2-systems/.venv/lib/python3.12/site-packages/triton/language/standard.py":122:4)
#loc79 = loc("/home/rolph/projects/stanford-cs336-assignment2-systems/.venv/lib/python3.12/site-packages/triton/language/standard.py":184:40)
#loc80 = loc("/home/rolph/projects/stanford-cs336-assignment2-systems/.venv/lib/python3.12/site-packages/triton/language/standard.py":184:15)
#loc81 = loc("/home/rolph/projects/stanford-cs336-assignment2-systems/.venv/lib/python3.12/site-packages/triton/language/standard.py":172:4)
#loc83 = loc("/home/rolph/projects/stanford-cs336-assignment2-systems/.venv/lib/python3.12/site-packages/triton/language/standard.py":163:27)
#loc84 = loc("/home/rolph/projects/stanford-cs336-assignment2-systems/.venv/lib/python3.12/site-packages/triton/language/standard.py":163:11)
#loc85 = loc("/home/rolph/projects/stanford-cs336-assignment2-systems/.venv/lib/python3.12/site-packages/triton/language/standard.py":163:4)
#loc87 = loc("/home/rolph/projects/stanford-cs336-assignment2-systems/.venv/lib/python3.12/site-packages/triton/language/standard.py":267:36)
#loc88 = loc("/home/rolph/projects/stanford-cs336-assignment2-systems/.venv/lib/python3.12/site-packages/triton/language/standard.py":267:11)
#loc89 = loc("/home/rolph/projects/stanford-cs336-assignment2-systems/.venv/lib/python3.12/site-packages/triton/language/standard.py":267:4)
#loc91 = loc("/home/rolph/projects/stanford-cs336-assignment2-systems/.venv/lib/python3.12/site-packages/triton/language/standard.py":256:15)
#loc92 = loc("/home/rolph/projects/stanford-cs336-assignment2-systems/.venv/lib/python3.12/site-packages/triton/language/standard.py":256:11)
#loc93 = loc("/home/rolph/projects/stanford-cs336-assignment2-systems/.venv/lib/python3.12/site-packages/triton/language/standard.py":256:4)

